…
_dir='../data', dataset='cifar10', decayinterval=50, decaylevel=2, epochs=300, evaluate=False, inpsize=32, learningratescheduler='decayschedular', logdir='../logs//cifar10_nin_fprec', lr=None, manualSeed=123, maxlr=0.01, minlr=0.0001, model_def='nin', momentum=0.9, nClasses=10, name='cifar10_nin_fprec', nesterov=True, ngpus=1, optimType='adam', pretrained=False, pretrained_file='', printfreq=200, resume='', start_epoch=0, store='', tenCrop=False, tensorboard=True, testOnly=False, testbatchsize=512, verbose=False, weightDecay=0.0, weight_init=True, workers=8)
Net (
  (xnor): Sequential (
    (0): Conv2d(3, 192, kernel_size=(5, 5), stride=(1, 1), padding=(2, 2))
    (1): BatchNorm2d(192, eps=0.0001, momentum=0.1, affine=False)
    (2): ReLU (inplace)
    (3): BinConv2d (
      (bn): BatchNorm2d(192, eps=0.0001, momentum=0.1, affine=True)
      (conv): Conv2d(192, 160, kernel_size=(1, 1), stride=(1, 1))
      (relu): ReLU (inplace)
    )
    (4): BinConv2d (
      (bn): BatchNorm2d(160, eps=0.0001, momentum=0.1, affine=True)
      (conv): Conv2d(160, 96, kernel_size=(1, 1), stride=(1, 1))
      (relu): ReLU (inplace)
    )
    (5): MaxPool2d (size=(3, 3), stride=(2, 2), padding=(1, 1), dilation=(1, 1))
    (6): BinConv2d (
      (bn): BatchNorm2d(96, eps=0.0001, momentum=0.1, affine=True)
      (dropout): Dropout (p = 0.5)
      (conv): Conv2d(96, 192, kernel_size=(5, 5), stride=(1, 1), padding=(2, 2))
      (relu): ReLU (inplace)
    )
    (7): BinConv2d (
      (bn): BatchNorm2d(192, eps=0.0001, momentum=0.1, affine=True)
      (conv): Conv2d(192, 192, kernel_size=(1, 1), stride=(1, 1))
      (relu): ReLU (inplace)
    )
    (8): BinConv2d (
      (bn): BatchNorm2d(192, eps=0.0001, momentum=0.1, affine=True)
      (conv): Conv2d(192, 192, kernel_size=(1, 1), stride=(1, 1))
      (relu): ReLU (inplace)
    )
    (9): AvgPool2d (size=3, stride=2, padding=1, ceil_mode=False, count_include_pad=True)
    (10): BinConv2d (
      (bn): BatchNorm2d(192, eps=0.0001, momentum=0.1, affine=True)
      (dropout): Dropout (p = 0.5)
      (conv): Conv2d(192, 192, kernel_size=(3, 3), stride=(1, 1), padding=(1, 1))
      (relu): ReLU (inplace)
    )
    (11): BinConv2d (
      (bn): BatchNorm2d(192, eps=0.0001, momentum=0.1, affine=True)
      (conv): Conv2d(192, 192, kernel_size=(1, 1), stride=(1, 1))
      (relu): ReLU (inplace)
    )
    (12): BatchNorm2d(192, eps=0.0001, momentum=0.1, affine=False)
    (13): Conv2d(192, 10, kernel_size=(1, 1), stride=(1, 1))
    (14): ReLU (inplace)
    (15): AvgPool2d (size=8, stride=1, padding=0, ceil_mode=False, count_include_pad=True)
  )
)
Files already downloaded and verified
Starting epoch number: 1 Learning rate: 0.01
Train: [0]	Time 35.141	Data 0.447	Loss 2.237	Accuracy 0.2574	Prec@1 25.6320	Prec@5 77.6500	
Val: [0]	Time 3.065	Data 0.371	Loss 1.820	Accuracy 0.3314	Prec@1 33.1400	Prec@5 85.5200	
…
