…
e, inpsize=225, learningratescheduler='decayschedular', logdir='../logs//cifar100_bincifar_dualbin', lr=None, manualSeed=123, maxlr=0.001, minlr=5e-05, model_def='bincifar', momentum=0.9, nClasses=100, name='cifar100_bincifar_dualbin', nesterov=True, ngpus=1, optimType='adam', pretrained=False, pretrained_file='', printfreq=200, resume='', start_epoch=0, store='', tenCrop=False, tensorboard=True, testOnly=False, testbatchsize=16, verbose=False, weightDecay=0.0, weight_init=True, workers=2)
Net (
  (relu): ReLU ()
  (hardtanh): Hardtanh (min_val=-1, max_val=1)
  (drop): Dropout2d (p=0.4)
  (bn1): BatchNorm2d(128, eps=1e-05, momentum=0.1, affine=True)
  (conv1): Conv2d(3, 128, kernel_size=(3, 3), stride=(1, 1), padding=(1, 1))
  (bn2): BatchNorm2d(128, eps=1e-05, momentum=0.1, affine=True)
  (conv2): Conv2d(128, 128, kernel_size=(3, 3), stride=(1, 1), padding=(1, 1))
  (maxpool1): MaxPool2d (size=(2, 2), stride=(2, 2), dilation=(1, 1))
  (bn3): BatchNorm2d(128, eps=1e-05, momentum=0.1, affine=True)
  (conv3): Conv2d(128, 256, kernel_size=(3, 3), stride=(1, 1), padding=(1, 1))
  (bn4): BatchNorm2d(256, eps=1e-05, momentum=0.1, affine=True)
  (conv4): Conv2d(256, 256, kernel_size=(3, 3), stride=(1, 1), padding=(1, 1))
  (maxpool2): MaxPool2d (size=(2, 2), stride=(2, 2), dilation=(1, 1))
  (bn5): BatchNorm2d(256, eps=1e-05, momentum=0.1, affine=True)
  (conv5): Conv2d(256, 512, kernel_size=(3, 3), stride=(1, 1), padding=(1, 1))
  (bn6): BatchNorm2d(512, eps=1e-05, momentum=0.1, affine=True)
  (conv6): Conv2d(512, 512, kernel_size=(3, 3), stride=(1, 1), padding=(1, 1))
  (maxpool3): MaxPool2d (size=(2, 2), stride=(2, 2), dilation=(1, 1))
  (bn7): BatchNorm2d(512, eps=1e-05, momentum=0.1, affine=True)
  (conv7): Conv2d(512, 1024, kernel_size=(4, 4), stride=(1, 1))
  (bn8): BatchNorm2d(1024, eps=1e-05, momentum=0.1, affine=True)
  (conv8): Conv2d(1024, 100, kernel_size=(1, 1), stride=(1, 1))
)
Files already downloaded and verified
Starting epoch number: 1 Learning rate: 0.001
Train: [0]	Time 88.530	Data 29.551	Loss 5.178	Accuracy 0.0642	Prec@1 6.4240	Prec@5 20.3980	
Val: [0]	Time 1.592	Data 0.244	Loss 3.947	Accuracy 0.1321	Prec@1 13.2100	Prec@5 35.0500	
Best accuracy: [13.210]	
Starting epoch number: 2 Learning rate: 0.001
Train: [1]	Time 85.660	Data 29.534	Loss 3.927	Accuracy 0.1242	Prec@1 12.4140	Prec@5 33.8200	
…
