…
escheduler='decayschedular', logdir='../logs//cifar10_bincifarfbin_dualbin_oldactiv', lr=None, manualSeed=123, maxlr=0.001, minlr=5e-05, model_def='bincifarfbin', momentum=0.9, nClasses=10, name='cifar10_bincifarfbin_dualbin_oldactiv', nesterov=True, ngpus=1, optimType='adam', pretrained=False, pretrained_file='', printfreq=200, resume='', start_epoch=0, store='', tenCrop=False, tensorboard=True, testOnly=False, testbatchsize=16, verbose=False, weightDecay=0.0, weight_init=True, workers=2)
Net (
  (relu): ReLU ()
  (hardtanh): Hardtanh (min_val=-1, max_val=1)
  (drop): Dropout2d (p=0.4)
  (bn1): BatchNorm2d(128, eps=1e-05, momentum=0.1, affine=True)
  (conv1): Conv2d(3, 128, kernel_size=(3, 3), stride=(1, 1), padding=(1, 1))
  (conv2): Conv2d(128, 128, kernel_size=(3, 3), stride=(1, 1), padding=(1, 1))
  (bn2): BatchNorm2d(128, eps=1e-05, momentum=0.1, affine=True)
  (activ2): Active (
  )
  (maxpool1): MaxPool2d (size=(2, 2), stride=(2, 2), dilation=(1, 1))
  (conv3): Conv2d(128, 256, kernel_size=(3, 3), stride=(1, 1), padding=(1, 1))
  (bn3): BatchNorm2d(128, eps=1e-05, momentum=0.1, affine=True)
  (activ3): Active (
  )
  (conv4): Conv2d(256, 256, kernel_size=(3, 3), stride=(1, 1), padding=(1, 1))
  (bn4): BatchNorm2d(256, eps=1e-05, momentum=0.1, affine=True)
  (activ4): Active (
  )
  (maxpool2): MaxPool2d (size=(2, 2), stride=(2, 2), dilation=(1, 1))
  (conv5): Conv2d(256, 512, kernel_size=(3, 3), stride=(1, 1), padding=(1, 1))
  (bn5): BatchNorm2d(256, eps=1e-05, momentum=0.1, affine=True)
  (activ5): Active (
  )
  (conv6): Conv2d(512, 512, kernel_size=(3, 3), stride=(1, 1), padding=(1, 1))
  (bn6): BatchNorm2d(512, eps=1e-05, momentum=0.1, affine=True)
  (activ6): Active (
  )
  (maxpool3): MaxPool2d (size=(2, 2), stride=(2, 2), dilation=(1, 1))
  (conv7): Conv2d(512, 1024, kernel_size=(4, 4), stride=(1, 1))
  (bn7): BatchNorm2d(512, eps=1e-05, momentum=0.1, affine=True)
  (activ7): Active (
  )
  (conv8): Conv2d(1024, 10, kernel_size=(1, 1), stride=(1, 1))
)
Files already downloaded and verified
Starting epoch number: 1 Learning rate: 0.001
Train: [0]	Time 89.821	Data 29.296	Loss 6.175	Accuracy 0.1964	Prec@1 19.6400	Prec@5 70.5540	
Val: [0]	Time 1.673	Data 0.223	Loss 1.929	Accuracy 0.3236	Prec@1 32.3600	Prec@5 84.1100	
Best accuracy: [32.360]	
Starting epoch number: 2 Learning rate: 0.001
Train: [1]	Time 86.857	Data 29.283	Loss 1.857	Accuracy 0.3034	Prec@1 30.3400	Prec@5 84.2680	
…
