…
rval=50, decaylevel=2, epochs=400, evaluate=False, inpsize=224, learningratescheduler='decayschedular', logdir='../logs//sketchy_resnetfbin18_dualbin_oldactiv', lr=None, manualSeed=123, maxlr=0.0005, minlr=1e-05, model_def='resnetfbin18', momentum=0.9, nClasses=125, name='sketchy_resnetfbin18_dualbin_oldactiv', nesterov=True, ngpus=1, optimType='adam', pretrained=False, pretrained_file='', printfreq=200, resume='', start_epoch=0, store='', tenCrop=True, tensorboard=True, testOnly=False, testbatchsize=8, verbose=False, weightDecay=0.0, weight_init=True, workers=4)
making model
ResNet (
  (conv1): Conv2d(1, 64, kernel_size=(7, 7), stride=(2, 2), padding=(3, 3), bias=False)
  (bn1): BatchNorm2d(64, eps=1e-05, momentum=0.1, affine=True)
  (relu): ReLU (inplace)
  (maxpool): MaxPool2d (size=(3, 3), stride=(2, 2), padding=(1, 1), dilation=(1, 1))
  (layer1): Sequential (
    (0): BasicBlock (
      (conv1): Conv2d(64, 64, kernel_size=(3, 3), stride=(1, 1), padding=(1, 1), bias=False)
      (active1): Active (
      )
      (bn1): BatchNorm2d(64, eps=1e-05, momentum=0.1, affine=True)
      (relu): ReLU (inplace)
      (conv2): Conv2d(64, 64, kernel_size=(3, 3), stride=(1, 1), padding=(1, 1), bias=False)
      (active2): Active (
      )
      (bn2): BatchNorm2d(64, eps=1e-05, momentum=0.1, affine=True)
    )
    (1): BasicBlock (
      (conv1): Conv2d(64, 64, kernel_size=(3, 3), stride=(1, 1), padding=(1, 1), bias=False)
      (active1): Active (
      )
      (bn1): BatchNorm2d(64, eps=1e-05, momentum=0.1, affine=True)
      (relu): ReLU (inplace)
      (conv2): Conv2d(64, 64, kernel_size=(3, 3), stride=(1, 1), padding=(1, 1), bias=False)
      (active2): Active (
      )
      (bn2): BatchNorm2d(64, eps=1e-05, momentum=0.1, affine=True)
    )
  )
  (layer2): Sequential (
    (0): BasicBlock (
      (conv1): Conv2d(64, 128, kernel_size=(3, 3), stride=(2, 2), padding=(1, 1), bias=False)
      (active1): Active (
      )
      (bn1): BatchNorm2d(64, eps=1e-05, momentum=0.1, affine=True)
      (relu): ReLU (inplace)
      (conv2): Conv2d(128, 128, kernel_size=(3, 3), stride=(1, 1), padding=(1, 1), bias=False)
      (active2): Active (
      )
      (bn2): BatchNorm2d(128, eps=1e-05, momentum=0.1, affine=True)
      (downsample): Sequential (
        (0): BatchNorm2d(64, eps=1e-05, momentum=0.1, affine=True)
        (1): Active (
        )
        (2): Conv2d(64, 128, kernel_size=(1, 1), stride=(2, 2), bias=False)
      )
    )
    (1): BasicBlock (
      (conv1): Conv2d(128, 128, kernel_size=(3, 3), stride=(1, 1), padding=(1, 1), bias=False)
      (active1): Active (
      )
      (bn1): BatchNorm2d(128, eps=1e-05, momentum=0.1, affine=True)
      (relu): ReLU (inplace)
      (conv2): Conv2d(128, 128, kernel_size=(3, 3), stride=(1, 1), padding=(1, 1), bias=False)
      (active2): Active (
      )
      (bn2): BatchNorm2d(128, eps=1e-05, momentum=0.1, affine=True)
    )
  )
  (layer3): Sequential (
    (0): BasicBlock (
      (conv1): Conv2d(128, 256, kernel_size=(3, 3), stride=(2, 2), padding=(1, 1), bias=False)
      (active1): Active (
      )
      (bn1): BatchNorm2d(128, eps=1e-05, momentum=0.1, affine=True)
      (relu): ReLU (inplace)
      (conv2): Conv2d(256, 256, kernel_size=(3, 3), stride=(1, 1), padding=(1, 1), bias=False)
      (active2): Active (
      )
      (bn2): BatchNorm2d(256, eps=1e-05, momentum=0.1, affine=True)
      (downsample): Sequential (
        (0): BatchNorm2d(128, eps=1e-05, momentum=0.1, affine=True)
        (1): Active (
        )
        (2): Conv2d(128, 256, kernel_size=(1, 1), stride=(2, 2), bias=False)
      )
    )
    (1): BasicBlock (
      (conv1): Conv2d(256, 256, kernel_size=(3, 3), stride=(1, 1), padding=(1, 1), bias=False)
      (active1): Active (
      )
      (bn1): BatchNorm2d(256, eps=1e-05, momentum=0.1, affine=True)
      (relu): ReLU (inplace)
      (conv2): Conv2d(256, 256, kernel_size=(3, 3), stride=(1, 1), padding=(1, 1), bias=False)
      (active2): Active (
      )
      (bn2): BatchNorm2d(256, eps=1e-05, momentum=0.1, affine=True)
    )
  )
  (layer4): Sequential (
    (0): BasicBlock (
      (conv1): Conv2d(256, 512, kernel_size=(3, 3), stride=(2, 2), padding=(1, 1), bias=False)
      (active1): Active (
      )
      (bn1): BatchNorm2d(256, eps=1e-05, momentum=0.1, affine=True)
      (relu): ReLU (inplace)
      (conv2): Conv2d(512, 512, kernel_size=(3, 3), stride=(1, 1), padding=(1, 1), bias=False)
      (active2): Active (
      )
      (bn2): BatchNorm2d(512, eps=1e-05, momentum=0.1, affine=True)
      (downsample): Sequential (
        (0): BatchNorm2d(256, eps=1e-05, momentum=0.1, affine=True)
        (1): Active (
        )
        (2): Conv2d(256, 512, kernel_size=(1, 1), stride=(2, 2), bias=False)
      )
    )
    (1): BasicBlock (
      (conv1): Conv2d(512, 512, kernel_size=(3, 3), stride=(1, 1), padding=(1, 1), bias=False)
      (active1): Active (
      )
      (bn1): BatchNorm2d(512, eps=1e-05, momentum=0.1, affine=True)
      (relu): ReLU (inplace)
      (conv2): Conv2d(512, 512, kernel_size=(3, 3), stride=(1, 1), padding=(1, 1), bias=False)
      (active2): Active (
      )
      (bn2): BatchNorm2d(512, eps=1e-05, momentum=0.1, affine=True)
    )
  )
  (avgpool): AvgPool2d (size=7, stride=7, padding=0, ceil_mode=False, count_include_pad=True)
  (fc): Conv2d(512, 125, kernel_size=(1, 1), stride=(1, 1), bias=False)
)
Starting epoch number: 1 Learning rate: 0.0005
Train: [0]	Time 308.668	Data 92.158	Loss 4.607	Accuracy 0.0365	Prec@1 3.6540	Prec@5 13.4088	
Val: [0]	Time 43.812	Data 0.720	Loss 8.081	Accuracy 0.0211	Prec@1 2.1096	Prec@5 7.2774	
Best accuracy: [2.110]	
Starting epoch number: 2 Learning rate: 0.0005
Train: [1]	Time 307.102	Data 91.422	Loss 3.941	Accuracy 0.1306	Prec@1 13.0594	Prec@5 33.1316	
…
