…
nterval=50, decaylevel=2, epochs=600, evaluate=False, inpsize=224, learningratescheduler='decayschedular', logdir='../logs//tuberlin_googlenetwbin_dualbin', lr=None, manualSeed=123, maxlr=0.001, minlr=2e-05, model_def='googlenetwbin', momentum=0.9, nClasses=250, name='tuberlin_googlenetwbin_dualbin', nesterov=True, ngpus=1, optimType='adam', pretrained=False, pretrained_file='', printfreq=200, resume='', start_epoch=0, store='', tenCrop=True, tensorboard=True, testOnly=False, testbatchsize=4, verbose=False, weightDecay=0.0, weight_init=True, workers=4)
Net (
  (pre_layers): Sequential (
    (0): Conv2d(1, 64, kernel_size=(7, 7), stride=(2, 2), padding=(3, 3))
    (1): BatchNorm2d(64, eps=1e-05, momentum=0.1, affine=True)
    (2): ReLU (inplace)
    (3): MaxPool2d (size=(3, 3), stride=(2, 2), padding=(1, 1), dilation=(1, 1))
    (4): Conv2d(64, 64, kernel_size=(1, 1), stride=(1, 1), bias=False)
    (5): ReLU (inplace)
    (6): Conv2d(64, 192, kernel_size=(3, 3), stride=(1, 1), padding=(1, 1), bias=False)
    (7): ReLU (inplace)
    (8): MaxPool2d (size=(3, 3), stride=(2, 2), padding=(1, 1), dilation=(1, 1))
  )
  (a3): Inception (
    (b1): Sequential (
      (0): Conv2d(192, 64, kernel_size=(1, 1), stride=(1, 1), bias=False)
      (1): BatchNorm2d(64, eps=1e-05, momentum=0.1, affine=True)
      (2): ReLU (inplace)
    )
    (b2): Sequential (
      (0): Conv2d(192, 96, kernel_size=(1, 1), stride=(1, 1), bias=False)
      (1): BatchNorm2d(96, eps=1e-05, momentum=0.1, affine=True)
      (2): ReLU (inplace)
      (3): Conv2d(96, 128, kernel_size=(3, 3), stride=(1, 1), padding=(1, 1), bias=False)
      (4): BatchNorm2d(128, eps=1e-05, momentum=0.1, affine=True)
      (5): ReLU (inplace)
    )
    (b3): Sequential (
      (0): Conv2d(192, 16, kernel_size=(1, 1), stride=(1, 1), bias=False)
      (1): BatchNorm2d(16, eps=1e-05, momentum=0.1, affine=True)
      (2): ReLU (inplace)
      (3): Conv2d(16, 32, kernel_size=(5, 5), stride=(1, 1), padding=(2, 2), bias=False)
      (4): BatchNorm2d(32, eps=1e-05, momentum=0.1, affine=True)
      (5): ReLU (inplace)
    )
    (b4): Sequential (
      (0): MaxPool2d (size=(3, 3), stride=(1, 1), padding=(1, 1), dilation=(1, 1))
      (1): Conv2d(192, 32, kernel_size=(1, 1), stride=(1, 1), bias=False)
      (2): BatchNorm2d(32, eps=1e-05, momentum=0.1, affine=True)
      (3): ReLU (inplace)
    )
  )
  (b3): Inception (
    (b1): Sequential (
      (0): Conv2d(256, 128, kernel_size=(1, 1), stride=(1, 1), bias=False)
      (1): BatchNorm2d(128, eps=1e-05, momentum=0.1, affine=True)
      (2): ReLU (inplace)
    )
    (b2): Sequential (
      (0): Conv2d(256, 128, kernel_size=(1, 1), stride=(1, 1), bias=False)
      (1): BatchNorm2d(128, eps=1e-05, momentum=0.1, affine=True)
      (2): ReLU (inplace)
      (3): Conv2d(128, 192, kernel_size=(3, 3), stride=(1, 1), padding=(1, 1), bias=False)
      (4): BatchNorm2d(192, eps=1e-05, momentum=0.1, affine=True)
      (5): ReLU (inplace)
    )
    (b3): Sequential (
      (0): Conv2d(256, 32, kernel_size=(1, 1), stride=(1, 1), bias=False)
      (1): BatchNorm2d(32, eps=1e-05, momentum=0.1, affine=True)
      (2): ReLU (inplace)
      (3): Conv2d(32, 96, kernel_size=(5, 5), stride=(1, 1), padding=(2, 2), bias=False)
      (4): BatchNorm2d(96, eps=1e-05, momentum=0.1, affine=True)
      (5): ReLU (inplace)
    )
    (b4): Sequential (
      (0): MaxPool2d (size=(3, 3), stride=(1, 1), padding=(1, 1), dilation=(1, 1))
      (1): Conv2d(256, 64, kernel_size=(1, 1), stride=(1, 1), bias=False)
      (2): BatchNorm2d(64, eps=1e-05, momentum=0.1, affine=True)
      (3): ReLU (inplace)
    )
  )
  (maxpool): MaxPool2d (size=(3, 3), stride=(2, 2), dilation=(1, 1))
  (a4): Inception (
    (b1): Sequential (
      (0): Conv2d(480, 192, kernel_size=(1, 1), stride=(1, 1), bias=False)
      (1): BatchNorm2d(192, eps=1e-05, momentum=0.1, affine=True)
      (2): ReLU (inplace)
    )
    (b2): Sequential (
      (0): Conv2d(480, 96, kernel_size=(1, 1), stride=(1, 1), bias=False)
      (1): BatchNorm2d(96, eps=1e-05, momentum=0.1, affine=True)
      (2): ReLU (inplace)
      (3): Conv2d(96, 204, kernel_size=(3, 3), stride=(1, 1), padding=(1, 1), bias=False)
      (4): BatchNorm2d(204, eps=1e-05, momentum=0.1, affine=True)
      (5): ReLU (inplace)
    )
    (b3): Sequential (
      (0): Conv2d(480, 16, kernel_size=(1, 1), stride=(1, 1), bias=False)
      (1): BatchNorm2d(16, eps=1e-05, momentum=0.1, affine=True)
      (2): ReLU (inplace)
      (3): Conv2d(16, 48, kernel_size=(5, 5), stride=(1, 1), padding=(2, 2), bias=False)
      (4): BatchNorm2d(48, eps=1e-05, momentum=0.1, affine=True)
      (5): ReLU (inplace)
    )
    (b4): Sequential (
      (0): MaxPool2d (size=(3, 3), stride=(1, 1), padding=(1, 1), dilation=(1, 1))
      (1): Conv2d(480, 64, kernel_size=(1, 1), stride=(1, 1), bias=False)
      (2): BatchNorm2d(64, eps=1e-05, momentum=0.1, affine=True)
      (3): ReLU (inplace)
    )
  )
  (b4): Inception (
    (b1): Sequential (
      (0): Conv2d(508, 160, kernel_size=(1, 1), stride=(1, 1), bias=False)
      (1): BatchNorm2d(160, eps=1e-05, momentum=0.1, affine=True)
      (2): ReLU (inplace)
    )
    (b2): Sequential (
      (0): Conv2d(508, 112, kernel_size=(1, 1), stride=(1, 1), bias=False)
      (1): BatchNorm2d(112, eps=1e-05, momentum=0.1, affine=True)
      (2): ReLU (inplace)
      (3): Conv2d(112, 224, kernel_size=(3, 3), stride=(1, 1), padding=(1, 1), bias=False)
      (4): BatchNorm2d(224, eps=1e-05, momentum=0.1, affine=True)
      (5): ReLU (inplace)
    )
    (b3): Sequential (
      (0): Conv2d(508, 24, kernel_size=(1, 1), stride=(1, 1), bias=False)
      (1): BatchNorm2d(24, eps=1e-05, momentum=0.1, affine=True)
      (2): ReLU (inplace)
      (3): Conv2d(24, 64, kernel_size=(5, 5), stride=(1, 1), padding=(2, 2), bias=False)
      (4): BatchNorm2d(64, eps=1e-05, momentum=0.1, affine=True)
      (5): ReLU (inplace)
    )
    (b4): Sequential (
      (0): MaxPool2d (size=(3, 3), stride=(1, 1), padding=(1, 1), dilation=(1, 1))
      (1): Conv2d(508, 64, kernel_size=(1, 1), stride=(1, 1), bias=False)
      (2): BatchNorm2d(64, eps=1e-05, momentum=0.1, affine=True)
      (3): ReLU (inplace)
    )
  )
  (c4): Inception (
    (b1): Sequential (
      (0): Conv2d(512, 128, kernel_size=(1, 1), stride=(1, 1), bias=False)
      (1): BatchNorm2d(128, eps=1e-05, momentum=0.1, affine=True)
      (2): ReLU (inplace)
    )
    (b2): Sequential (
      (0): Conv2d(512, 128, kernel_size=(1, 1), stride=(1, 1), bias=False)
      (1): BatchNorm2d(128, eps=1e-05, momentum=0.1, affine=True)
      (2): ReLU (inplace)
      (3): Conv2d(128, 256, kernel_size=(3, 3), stride=(1, 1), padding=(1, 1), bias=False)
      (4): BatchNorm2d(256, eps=1e-05, momentum=0.1, affine=True)
      (5): ReLU (inplace)
    )
    (b3): Sequential (
      (0): Conv2d(512, 24, kernel_size=(1, 1), stride=(1, 1), bias=False)
      (1): BatchNorm2d(24, eps=1e-05, momentum=0.1, affine=True)
      (2): ReLU (inplace)
      (3): Conv2d(24, 64, kernel_size=(5, 5), stride=(1, 1), padding=(2, 2), bias=False)
      (4): BatchNorm2d(64, eps=1e-05, momentum=0.1, affine=True)
      (5): ReLU (inplace)
    )
    (b4): Sequential (
      (0): MaxPool2d (size=(3, 3), stride=(1, 1), padding=(1, 1), dilation=(1, 1))
      (1): Conv2d(512, 64, kernel_size=(1, 1), stride=(1, 1), bias=False)
      (2): BatchNorm2d(64, eps=1e-05, momentum=0.1, affine=True)
      (3): ReLU (inplace)
    )
  )
  (d4): Inception (
    (b1): Sequential (
      (0): Conv2d(512, 112, kernel_size=(1, 1), stride=(1, 1), bias=False)
      (1): BatchNorm2d(112, eps=1e-05, momentum=0.1, affine=True)
      (2): ReLU (inplace)
    )
    (b2): Sequential (
      (0): Conv2d(512, 144, kernel_size=(1, 1), stride=(1, 1), bias=False)
      (1): BatchNorm2d(144, eps=1e-05, momentum=0.1, affine=True)
      (2): ReLU (inplace)
      (3): Conv2d(144, 288, kernel_size=(3, 3), stride=(1, 1), padding=(1, 1), bias=False)
      (4): BatchNorm2d(288, eps=1e-05, momentum=0.1, affine=True)
      (5): ReLU (inplace)
    )
    (b3): Sequential (
      (0): Conv2d(512, 32, kernel_size=(1, 1), stride=(1, 1), bias=False)
      (1): BatchNorm2d(32, eps=1e-05, momentum=0.1, affine=True)
      (2): ReLU (inplace)
      (3): Conv2d(32, 64, kernel_size=(5, 5), stride=(1, 1), padding=(2, 2), bias=False)
      (4): BatchNorm2d(64, eps=1e-05, momentum=0.1, affine=True)
      (5): ReLU (inplace)
    )
    (b4): Sequential (
      (0): MaxPool2d (size=(3, 3), stride=(1, 1), padding=(1, 1), dilation=(1, 1))
      (1): Conv2d(512, 64, kernel_size=(1, 1), stride=(1, 1), bias=False)
      (2): BatchNorm2d(64, eps=1e-05, momentum=0.1, affine=True)
      (3): ReLU (inplace)
    )
  )
  (e4): Inception (
    (b1): Sequential (
      (0): Conv2d(528, 256, kernel_size=(1, 1), stride=(1, 1), bias=False)
      (1): BatchNorm2d(256, eps=1e-05, momentum=0.1, affine=True)
      (2): ReLU (inplace)
    )
    (b2): Sequential (
      (0): Conv2d(528, 160, kernel_size=(1, 1), stride=(1, 1), bias=False)
      (1): BatchNorm2d(160, eps=1e-05, momentum=0.1, affine=True)
      (2): ReLU (inplace)
      (3): Conv2d(160, 320, kernel_size=(3, 3), stride=(1, 1), padding=(1, 1), bias=False)
      (4): BatchNorm2d(320, eps=1e-05, momentum=0.1, affine=True)
      (5): ReLU (inplace)
    )
    (b3): Sequential (
      (0): Conv2d(528, 32, kernel_size=(1, 1), stride=(1, 1), bias=False)
      (1): BatchNorm2d(32, eps=1e-05, momentum=0.1, affine=True)
      (2): ReLU (inplace)
      (3): Conv2d(32, 128, kernel_size=(5, 5), stride=(1, 1), padding=(2, 2), bias=False)
      (4): BatchNorm2d(128, eps=1e-05, momentum=0.1, affine=True)
      (5): ReLU (inplace)
    )
    (b4): Sequential (
      (0): MaxPool2d (size=(3, 3), stride=(1, 1), padding=(1, 1), dilation=(1, 1))
      (1): Conv2d(528, 128, kernel_size=(1, 1), stride=(1, 1), bias=False)
      (2): BatchNorm2d(128, eps=1e-05, momentum=0.1, affine=True)
      (3): ReLU (inplace)
    )
  )
  (maxpool2): MaxPool2d (size=(3, 3), stride=(2, 2), padding=(1, 1), dilation=(1, 1))
  (a5): Inception (
    (b1): Sequential (
      (0): Conv2d(832, 256, kernel_size=(1, 1), stride=(1, 1), bias=False)
      (1): BatchNorm2d(256, eps=1e-05, momentum=0.1, affine=True)
      (2): ReLU (inplace)
    )
    (b2): Sequential (
      (0): Conv2d(832, 160, kernel_size=(1, 1), stride=(1, 1), bias=False)
      (1): BatchNorm2d(160, eps=1e-05, momentum=0.1, affine=True)
      (2): ReLU (inplace)
      (3): Conv2d(160, 320, kernel_size=(3, 3), stride=(1, 1), padding=(1, 1), bias=False)
      (4): BatchNorm2d(320, eps=1e-05, momentum=0.1, affine=True)
      (5): ReLU (inplace)
    )
    (b3): Sequential (
      (0): Conv2d(832, 48, kernel_size=(1, 1), stride=(1, 1), bias=False)
      (1): BatchNorm2d(48, eps=1e-05, momentum=0.1, affine=True)
      (2): ReLU (inplace)
      (3): Conv2d(48, 128, kernel_size=(5, 5), stride=(1, 1), padding=(2, 2), bias=False)
      (4): BatchNorm2d(128, eps=1e-05, momentum=0.1, affine=True)
      (5): ReLU (inplace)
    )
    (b4): Sequential (
      (0): MaxPool2d (size=(3, 3), stride=(1, 1), padding=(1, 1), dilation=(1, 1))
      (1): Conv2d(832, 128, kernel_size=(1, 1), stride=(1, 1), bias=False)
      (2): BatchNorm2d(128, eps=1e-05, momentum=0.1, affine=True)
      (3): ReLU (inplace)
    )
  )
  (b5): Inception (
    (b1): Sequential (
      (0): Conv2d(832, 384, kernel_size=(1, 1), stride=(1, 1), bias=False)
      (1): BatchNorm2d(384, eps=1e-05, momentum=0.1, affine=True)
      (2): ReLU (inplace)
    )
    (b2): Sequential (
      (0): Conv2d(832, 192, kernel_size=(1, 1), stride=(1, 1), bias=False)
      (1): BatchNorm2d(192, eps=1e-05, momentum=0.1, affine=True)
      (2): ReLU (inplace)
      (3): Conv2d(192, 384, kernel_size=(3, 3), stride=(1, 1), padding=(1, 1), bias=False)
      (4): BatchNorm2d(384, eps=1e-05, momentum=0.1, affine=True)
      (5): ReLU (inplace)
    )
    (b3): Sequential (
      (0): Conv2d(832, 48, kernel_size=(1, 1), stride=(1, 1), bias=False)
      (1): BatchNorm2d(48, eps=1e-05, momentum=0.1, affine=True)
      (2): ReLU (inplace)
      (3): Conv2d(48, 128, kernel_size=(5, 5), stride=(1, 1), padding=(2, 2), bias=False)
      (4): BatchNorm2d(128, eps=1e-05, momentum=0.1, affine=True)
      (5): ReLU (inplace)
    )
    (b4): Sequential (
      (0): MaxPool2d (size=(3, 3), stride=(1, 1), padding=(1, 1), dilation=(1, 1))
      (1): Conv2d(832, 128, kernel_size=(1, 1), stride=(1, 1), bias=False)
      (2): BatchNorm2d(128, eps=1e-05, momentum=0.1, affine=True)
      (3): ReLU (inplace)
    )
  )
  (avgpool): AvgPool2d (size=7, stride=1, padding=0, ceil_mode=False, count_include_pad=True)
  (linear): Linear (1024 -> 250)
)
Starting epoch number: 1 Learning rate: 0.001
Train: [0]	Time 73.957	Data 21.967	Loss 5.177	Accuracy 0.0253	Prec@1 2.5333	Prec@5 9.7185	
Val: [0]	Time 45.848	Data 1.316	Loss 4.504	Accuracy 0.0723	Prec@1 7.2308	Prec@5 22.9692	
…
