…
, epochs=600, evaluate=False, inpsize=225, learningratescheduler='decayschedular', logdir='../logs//tuberlin_sketchanetwbin_dualbin', lr=None, manualSeed=123, maxlr=0.0005, minlr=1e-05, model_def='sketchanetwbin', momentum=0.9, nClasses=250, name='tuberlin_sketchanetwbin_dualbin', nesterov=True, ngpus=1, optimType='adam', pretrained=False, pretrained_file='', printfreq=200, resume='', start_epoch=0, store='', tenCrop=True, tensorboard=True, testOnly=False, testbatchsize=16, verbose=False, weightDecay=0.0, weight_init=True, workers=8)
Net (
  (relu): ReLU ()
  (drop): Dropout2d (p=0.1)
  (conv1): Conv2d(1, 64, kernel_size=(15, 15), stride=(3, 3))
  (bn1): BatchNorm2d(64, eps=1e-05, momentum=0.1, affine=True)
  (maxpool1): MaxPool2d (size=(3, 3), stride=(2, 2), dilation=(1, 1))
  (conv2): Conv2d(64, 128, kernel_size=(5, 5), stride=(1, 1), bias=False)
  (bn2): BatchNorm2d(128, eps=1e-05, momentum=0.1, affine=True)
  (maxpool2): MaxPool2d (size=(3, 3), stride=(2, 2), dilation=(1, 1))
  (conv3): Conv2d(128, 256, kernel_size=(3, 3), stride=(1, 1), padding=(1, 1), bias=False)
  (bn3): BatchNorm2d(256, eps=1e-05, momentum=0.1, affine=True)
  (conv4): Conv2d(256, 256, kernel_size=(3, 3), stride=(1, 1), padding=(1, 1), bias=False)
  (bn4): BatchNorm2d(256, eps=1e-05, momentum=0.1, affine=True)
  (conv5): Conv2d(256, 256, kernel_size=(3, 3), stride=(1, 1), padding=(1, 1), bias=False)
  (bn5): BatchNorm2d(256, eps=1e-05, momentum=0.1, affine=True)
  (maxpool3): MaxPool2d (size=(3, 3), stride=(2, 2), dilation=(1, 1))
  (conv6): Conv2d(256, 512, kernel_size=(7, 7), stride=(1, 1), bias=False)
  (bn6): BatchNorm2d(512, eps=1e-05, momentum=0.1, affine=True)
  (conv7): Conv2d(512, 512, kernel_size=(1, 1), stride=(1, 1), bias=False)
  (bn7): BatchNorm2d(512, eps=1e-05, momentum=0.1, affine=True)
  (conv8): Conv2d(512, 250, kernel_size=(1, 1), stride=(1, 1))
)
Starting epoch number: 1 Learning rate: 0.0005
Train: [0]	Time 19.577	Data 5.717	Loss 5.906	Accuracy 0.0143	Prec@1 1.4296	Prec@5 5.5333	
Val: [0]	Time 11.099	Data 0.624	Loss 5.818	Accuracy 0.0040	Prec@1 0.4000	Prec@5 1.9846	
Best accuracy: [0.400]	
Starting epoch number: 2 Learning rate: 0.0005
Train: [1]	Time 14.616	Data 5.015	Loss 5.191	Accuracy 0.0426	Prec@1 4.2593	Prec@5 13.2963	
…
