…
lse, inpsize=225, learningratescheduler='decayschedular', logdir='../logs//tuberlin_sketchanetfbin_dualbin_oldactiv', lr=None, manualSeed=123, maxlr=0.0005, minlr=1e-05, model_def='sketchanetfbin', momentum=0.9, nClasses=250, name='tuberlin_sketchanetfbin_dualbin_oldactiv', nesterov=True, ngpus=1, optimType='adam', pretrained=False, pretrained_file='', printfreq=200, resume='', start_epoch=0, store='', tenCrop=True, tensorboard=True, testOnly=False, testbatchsize=16, verbose=False, weightDecay=0.0, weight_init=True, workers=4)
Net (
  (relu): ReLU (inplace)
  (drop): Dropout2d (p=0.2)
  (conv1): Conv2d(1, 64, kernel_size=(15, 15), stride=(3, 3))
  (bn1): BatchNorm2d(64, eps=1e-05, momentum=0.1, affine=True)
  (maxpool1): MaxPool2d (size=(3, 3), stride=(2, 2), dilation=(1, 1))
  (conv2): Conv2d(64, 128, kernel_size=(5, 5), stride=(1, 1), bias=False)
  (bn2): BatchNorm2d(64, eps=1e-05, momentum=0.1, affine=True)
  (activ2): Active (
  )
  (maxpool2): MaxPool2d (size=(3, 3), stride=(2, 2), dilation=(1, 1))
  (conv3): Conv2d(128, 256, kernel_size=(3, 3), stride=(1, 1), padding=(1, 1), bias=False)
  (bn3): BatchNorm2d(128, eps=1e-05, momentum=0.1, affine=True)
  (activ3): Active (
  )
  (conv4): Conv2d(256, 256, kernel_size=(3, 3), stride=(1, 1), padding=(1, 1), bias=False)
  (bn4): BatchNorm2d(256, eps=1e-05, momentum=0.1, affine=True)
  (activ4): Active (
  )
  (conv5): Conv2d(256, 256, kernel_size=(3, 3), stride=(1, 1), padding=(1, 1), bias=False)
  (bn5): BatchNorm2d(256, eps=1e-05, momentum=0.1, affine=True)
  (activ5): Active (
  )
  (maxpool3): MaxPool2d (size=(3, 3), stride=(2, 2), dilation=(1, 1))
  (conv6): Conv2d(256, 512, kernel_size=(7, 7), stride=(1, 1), bias=False)
  (bn6): BatchNorm2d(256, eps=1e-05, momentum=0.1, affine=True)
  (activ6): Active (
  )
  (conv7): Conv2d(512, 512, kernel_size=(1, 1), stride=(1, 1), bias=False)
  (bn7): BatchNorm2d(512, eps=1e-05, momentum=0.1, affine=True)
  (activ7): Active (
  )
  (conv8): Conv2d(512, 250, kernel_size=(1, 1), stride=(1, 1))
)
Starting epoch number: 1 Learning rate: 0.0005
Train: [0]	Time 21.822	Data 6.535	Loss 6.363	Accuracy 0.0060	Prec@1 0.6000	Prec@5 2.8667	
Val: [0]	Time 11.416	Data 0.436	Loss 6.139	Accuracy 0.0054	Prec@1 0.5385	Prec@5 2.8154	
Best accuracy: [0.538]	
Starting epoch number: 2 Learning rate: 0.0005
Train: [1]	Time 18.932	Data 6.372	Loss 5.856	Accuracy 0.0124	Prec@1 1.2444	Prec@5 4.9852	
…
